best_model.pth (torch, 619298 bytes, 22 tensors)

conv1.0.weight f4 [32, 1, 3, 3]
00000000: e80d 963e eac2 5abe 296f 6e3e 1069 293e
00000010: 133e 26be 843a 583e e89d 8cbd 1f57 4fbe
00000020: 10f5 863e a02f 293e 75c8 90bc 952c 94be
00000030: e2bb 063e 8482 893d 8c08 41be 9627 143c
00000040: e93e 963e 33a5 d23d a7f2 c6bd d8c5 bb3c
00000050: 82c1 34be 2df4 5a3e 2ba3 e63d 8626 41bb
00000060: f5f4 afbd 4e47 8abe 5a28 d6bd 1287 423e
00000070: ccb1 98be a115 b43d 27b2 b93e 7e70 033e
00000080: b178 c03d e792 8dbd 9f50 0cbd 4bcf 8bbe
00000090: 9c11 e5bd 06e6 213d a73e 913d 5eba 043e
000000a0: 7388 5dbe e4ad 013e d63e 4abe 78b5 9bbe
000000b0: b50a 1cbe 839e 5abe ac6a 5a3d ff9a 3f3d
000000c0: 9fc6 543e 8f53 1f3e ec13 983d 5dc7 fe3d
000000d0: 109e 0d3e e135 afbe d521 e7bd dd5c 72be
000000e0: 1df9 76be ab89 103e 6cc0 a33e 6a6b 573e
000000f0: 71bc 56be b27e 2c3d 73fb 443e 4bd6 cf3d
00000100: 97b9 63be b3f7 1f3c 95b9 263e 429a 153d
00000110: e070 af3e 627c 513e d2e6 5fbe e15e 8f3e
00000120: 604c 81be 6466 3abe b80b 2d3e ac6e 8a3c
00000130: 90c1 ab3e a5f5 5c3e af1a a2bd dee2 8c3e
00000140: a63f 6fbe 4265 f23d 6caf 0f3e 3f18 833e
00000150: 8920 a53e 2db0 333e a976 06be dd71 6e3e
00000160: 1ac2 743e 5149 d9bc 9304 7d3e d671 803d
00000170: 4a2b 97bc 8846 c53d 9cd2 8fbb d6bf cabd
00000180: d8f4 593d c5fa 32bd 1241 5fbe 1b0c 6cbe
00000190: 73b3 393e 7601 d1bd b063 8f3a 28e6 8a3e
000001a0: 2df4 823e 9a26 313e 8cbb 533e fc5b 633e
000001b0: 7c10 1fbe eb20 9a3e a860 62be 111b 91be
000001c0: 3687 09be 2200 c03e 11b3 303e 9507 053e
000001d0: 23a9 be3d d729 ccbe 4708 8fbe 0d38 133e
000001e0: 7a9d a5bd d258 fd3d 8e9b 94be 7d91 933e
000001f0: c3fc 36be 2e5f 1c3e dfc9 153e f45b 28be
00000200: 8670 a43e 2584 fd3d ab62 4dbe f6a8 5abd
00000210: 84a2 a83e c639 69bd 8415 cb3c 84b6 1a3e
00000220: 4521 163e c095 2abe 986a 443e d652 d73d
00000230: 8f3e a63d 1eb7 7bbe b14f 343e 3981 fabd
00000240: f7ab 483e d0c1 593e 115d 6a3e fed8 56bd
00000250: 1047 5c3e e28d 8d3e 59be 933d 5e56 35bd
00000260: 90ca 6fbe f5b1 33be f60d 793e 540d 73be
00000270: c2a8 02be 8fc6 093e 33bf 2ebe fcc4 4fbe
00000280: 329a f73d 1bf1 d33d 7eaa c5be c29c 123d
00000290: 5a4e 3cbe 733d 2b3e e66d 523e 0a0d a73d
000002a0: a09e 7d3e e192 d1bd 294d fdbd e5cd dc3d
000002b0: 54d3 d33d c6bf eebd 2cf9 55be 0e2d b4bd
000002c0: e1e7 033e f818 3a3e 4a6c 53be 7929 893e
000002d0: 4fdf 88be 371b 91bc 4b9f 843d a676 7dbe
000002e0: 70a5 a83e 281f 2bbe bcd6 233e 7535 473b
000002f0: 100d ffbd ec18 b33e 8b7a 91bd 5bbb aa3d
00000300: d455 953e 003d 88be 9508 933e 83c9 30be
00000310: 394d 87be 0d6b 4a3e 7dbf 98bd 7dd3 afbe
00000320: 0b31 14be 8017 483e c051 d63d 75d6 c2bd
00000330: 99d8 233e 6257 983d 99e6 4bbe 9edd ae3d
00000340: 2d3b 6f3e ef72 f7bc 7de0 c2bd ce60 ae3e
00000350: 63b4 15bd be6f 923e 6274 a03e 304d 6c3e
00000360: 3147 cb3d 1e9c 0f3e ca5e 0e3d 3bf6 83be
00000370: 0f48 33be 8c4d 33be 85f2 71bd 393e 48be
00000380: e8dc 03be 3e03 88be d3de 50be 22fa b63d
00000390: 4b85 a53e 2d42 1bbe 74bf 6fbe 53e3 acbd
000003a0: d222 aabd 789e a7be 0472 a33e a211 7b3e
000003b0: ec21 483e 683b 13be 6def 42be 2c48 a13e
000003c0: 486d 36be db57 b8be 71e4 8ebe f4b1 803d
000003d0: 2711 23bd 5fdb 20be f841 a03e 9371 69be
000003e0: 4de9 03bd 36dc de3d fd77 053e 5ac0 923e
000003f0: 97f0 b4bd 43a4 473e 3b4d cfbc a6d1 14bc
0.29307485 -0.21363416 0.23284592 0.16543984 -0.16234617 0.21116072 -0.06866056 -0.20248078
0.26358843 0.16522074 -0.01767371 -0.28940263 0.13157609 0.06714347 -0.18850917 0.009042641
0.29344872 0.102854155 -0.09714251 0.022921488 -0.17651942 0.21382208 0.112615906 -0.0029472425
-0.08591644 -0.27007526 -0.10456915 0.18996838 -0.29823148 0.08793188 0.36268732 0.12835881
0.0939802 -0.06912785 -0.034256574 -0.2730659 -0.11184999 0.039526008 0.07092028 0.12961718
-0.21634082 0.1266399 -0.19750533 -0.30411887 -0.1523846 -0.2134953 0.053324386 0.046778675
0.20778893 0.15559219 0.07425675 0.12440369 0.13829827 -0.34220794 -0.1128575 -0.23668237
-0.24118467 0.14115016 0.31982744 0.21037069 -0.20970322 0.042113014 0.19236545 0.10148295
-0.22238766 0.009763646 0.16281731 0.036524065 0.34265804 0.20457605 -0.21865395 0.28002074
-0.25253582 -0.18203121 0.16899002 0.016898476 0.33546114 0.21578081 -0.07915246 0.27516836
-0.23364124 0.1183572 0.14031762 0.25604436 0.32251385 0.17547674 -0.13131203 0.23285623
0.23902169 -0.026524218 0.24708776 0.062717125 -0.018453259 0.096325934 -0.0043891203 -0.09899871
0.053212017 -0.043696184 -0.21802166 -0.23051493 0.1813486 -0.10205357 0.0010939743 0.2712872
0.25576916 0.17299882 0.20677012 0.22203058 -0.15533632 0.3010324 -0.22107184 -0.28340963
-0.13430485 0.375001 0.17255808 0.12991174 0.09309604 -0.3987567 -0.27936003 0.1437685
-0.08086677 0.12370457 -0.2902493 0.28821936 -0.17869858 0.15270683 0.14627789 -0.16441327
0.321171 0.1237872 -0.2005717 -0.05338379 0.3293649 -0.056939863 0.024790533 0.15108687
0.14661129 -0.16658688 0.19181287 0.105138466 0.08117401 -0.24581572 0.17608525 -0.122316785
0.1959685 0.2126534 0.22887065 -0.052453034 0.21511483 0.2764731 0.0721404 -0.04427182
-0.23417115 -0.17548354 0.24321732 -0.23735553 -0.12759688 0.1345465 -0.17065124 -0.20289987
0.12089957 0.103487216 -0.38606638 0.035794027 -0.18389264 0.1672266 0.20549735 0.08156784
0.24767542 -0.10233093 -0.12368233 0.10781459 0.10343042 -0.11657672 -0.20895833 -0.08797656
0.12881424 0.18173587 -0.20646778 0.26789454 -0.2673287 -0.017713172 0.06475695 -0.24752292
0.3293872 -0.16711104 0.15999883 0.0030396853 -0.12453663 0.3497995 -0.07103451 0.083365165
0.29167044 -0.2660904 0.28717485 -0.1726437 -0.26426104 0.19767399 -0.074583985 -0.3434104
-0.14471833 0.19540215 0.10464811 -0.09513561 0.16000594 0.07438542 -0.19912185 0.08538364
0.23362418 -0.030206172 -0.09515474 0.3405823 -0.036548983 0.28600878 0.31338793 0.2307632
0.09925688 0.14024398 0.034758367 -0.25773796 -0.17507957 -0.1751005 -0.059069175 -0.19554986
-0.12877238 -0.26564974 -0.203975 0.08934428 0.32328257 -0.15161963 -0.23412877 -0.08441796
-0.08307423 -0.3273809 0.31922925 0.24518445 0.1954419 -0.1437813 -0.19036646 0.31500375
-0.17815125 -0.36004528 -0.27908662 0.06283942 -0.03981128 -0.15708683 0.3130033 -0.22797231
-0.032204915 0.10881846 0.13034053 0.28662378 -0.08834951 0.19496255 -0.025305381 -0.009083187

conv1.0.bias f4 [32]
00000000: 9b3a 83be 3c12 ae3e dd08 c0bd 677f f03d
00000010: 337a c6bd b276 ccbd bc92 023e c98d 993e
00000020: fec4 aabd e2ee 0d3e f005 003e 1e05 42bd
00000030: cce3 793d fb90 eb3d 33a2 983e 8995 03be
00000040: 1ce3 853e d4a8 85bc 89da 173e 6132 92be
00000050: bd66 583e 1979 8b3e 83c1 b13d 60bd c63c
00000060: 8907 b53d b00e 87be d349 94be 49b9 813e
00000070: 7a2f 99be 5e3f 9dbd 3e41 4cbe fb3e 9abe
-0.2563065 0.33998287 -0.093766905 0.1174305 -0.096912764 -0.09983577 0.12751287 0.29990986
-0.083383545 0.13860658 0.12502265 -0.04736816 0.06100826 0.11502262 0.29811248 -0.12850012
0.26149833 -0.016315855 0.14829458 -0.2855406 0.21132942 0.27240828 0.086794876 0.024260223
0.08839328 -0.26378393 -0.28962573 0.25336674 -0.29919034 -0.07678102 -0.19946763 -0.30126175

conv1.1.weight f4 [32]
00000000: a2e4 813f 7ab1 813f 9a72 7c3f 2141 6e3f
00000010: 82ae 7d3f 1793 783f 1e3c 7c3f 968a 803f
00000020: 1e6f 7f3f ef19 7c3f def8 813f e5bd 833f
00000030: 1596 843f f36a 813f a76d 7f3f 96e5 7d3f
00000040: 3c8b 843f 0cb0 8b3f 3001 773f c78c 793f
00000050: adbb 7b3f 6222 833f 99f9 7f3f bedf 823f
00000060: 6b8c 803f 78be 763f 448c 793f 4560 783f
00000070: 22da 7b3f 78ff 793f c5d1 813f 3fff 7c3f
1.0147898 1.0132287 0.9861237 0.9306813 0.990944 0.9709944 0.9852923 1.0042293
0.99778926 0.9847707 1.0154073 1.0292326 1.0358301 1.0110763 0.9977669 0.99178445
1.0354991 1.09131 0.96486187 0.97480434 0.98333246 1.0244868 0.9999023 1.0224531
1.0042852 0.9638438 0.97479653 0.97021896 0.9837972 0.9765544 1.0142142 0.98826975

conv1.1.bias f4 [32]
00000000: 1b34 b8bd ca16 99bd 49cc 9dbd 784e 77bd
00000010: c8fd b7bd 9d50 c8bd 1542 aebd 057d c4bd
00000020: 3fc0 dbbd c912 a4bd 1fea dabd 33b1 5fbd
00000030: 1367 c2bd 5854 bdbd ec47 aabd 1495 82bd
00000040: f39f 42bd 0e62 a1bd 7db4 babd 03bc 8abd
00000050: 70e5 c6bd e5fe acbd 2743 76bd 47a3 9fbd
00000060: 6fce 8fbd 6520 12bd 5b48 b2bd 0df5 99bd
00000070: a35e bfbd 3a62 54bd 3684 d0bd a13e f5bd
-0.08994313 -0.0747505 -0.0770498 -0.060377568 -0.08983952 -0.09781001 -0.08508698 -0.09594158
-0.107300274 -0.080113955 -0.10689186 -0.05461235 -0.09492316 -0.09244603 -0.08314499 -0.06376091
-0.04751582 -0.078800306 -0.09116457 -0.06774142 -0.097117305 -0.08447055 -0.060122635 -0.077948146
-0.07021796 -0.035675425 -0.08705207 -0.07517443 -0.093442224 -0.05185149 -0.10181467 -0.11974836

conv1.1.running_mean f4 [32]
00000000: c560 84be f01d ae3e b02d c0bd f3f4 e93d
00000010: fe6b c6bd 8a6e cebd 3c40 023e cd5b 983e
00000020: c280 afbd 2e1f 093e 9ea3 fd3d 4daf 49bd
00000030: 08d8 7c3d 3c1e f33d 54fd 973e 9271 06be
00000040: 3220 833e 260e 76bc bb1f 183e 3efc 91be
00000050: 7aeb 593e 3bc4 893e f25a b53d f8e1 b03c
00000060: 9de6 b83d caf0 85be 8828 96be ccd2 813e
00000070: eefa 99be 1a06 a3bd ee18 4ebe 5da8 9bbe
-0.2585508 0.34007215 -0.09383714 0.114236735 -0.096885666 -0.100796774 0.12719816 0.29757538
-0.085694805 0.133908 0.12384723 -0.049239445 0.06172946 0.11871001 0.29685462 -0.13129261
0.256105 -0.015018022 0.14855854 -0.28512758 0.21281233 0.26907524 0.08855237 0.021592125
0.09028361 -0.2616027 -0.29327798 0.25356138 -0.30074257 -0.07960148 -0.20126697 -0.30401888

conv1.1.running_var f4 [32]
00000000: 4323 cd40 d83a 7040 58ce 2440 321c d440
00000010: b192 4540 8bf1 6440 f280 c940 1dd4 9e40
00000020: 163a d540 3b0d ba40 ab15 0740 3400 b240
00000030: 4636 0241 28ba 0241 9c2d 9940 6e83 5040
00000040: bcb7 ac40 94d2 9240 d07b bc40 f940 4340
00000050: 5f0b c040 ad32 0841 ef5e 9540 b046 b740
00000060: 965c 6740 46b8 df40 7ddd 0841 5010 9040
00000070: c36e 1440 95e0 dc40 187e ca40 9409 e440
6.4105544 3.7535915 2.5750942 6.628442 3.0870783 3.5772426 6.2969904 4.9633927
6.6633406 5.814115 2.1106975 5.562525 8.13825 8.170448 4.7868176 3.2580218
5.3974285 4.5882053 5.890114 3.0508406 6.001388 8.512372 4.6678386 5.727379
3.615026 6.9912443 8.554074 4.5019913 2.3192604 6.902415 6.3278923 7.126169

conv2.0.weight f4 [64, 32, 3, 3]
00000000: e6c9 1abd 1a6e 3bbd 5920 5cbd 043c abbd
00000010: 555a f2bc 9f69 09bb bb2b 63bd 34ee b13c
00000020: bae3 7abd b938 89bd d26e e0bb 2472 333d
00000030: b210 533d 3abf b43b 0167 3e3c 22c7 fa3a
00000040: 829d b53c 0b7a b5bc 3a76 aebc c980 11bb
00000050: 6563 793c 5be0 a23c 3110 0ebd 0036 a6bc
00000060: e4d1 b63b e136 b23c 17c7 26bd c075 15bd
00000070: f2d4 44bc 3ee3 97bd 19a7 65bc 793f b83c
00000080: df88 94bd 9fb6 0b3d 4d8d 873d 8219 3ebd
00000090: 3d3c 58bd 49c2 b13c f7f0 123b 7bd3 03bd
000000a0: acd4 a83c a4b2 c33b b2e4 a63c a587 f7bc
000000b0: 20f7 66bc 388e 4dbd 40b1 a0bd 6c08 3abd
000000c0: ff72 4e3c ecb2 8e3d d8b5 edbb 03b9 4d3b
000000d0: 67a0 70bd b5c9 6abd 7724 12bd a214 8abd
000000e0: 4f72 2abd 7b40 31bd 69ce 32bd c57a fa3b
000000f0: aafd 27bd af1d 82bc a5fd a1bc 380a 8bbc
00000100: ec30 b7bd 58c5 95bd 1701 b1bd 41e4 183d
00000110: 052b 4ebc d814 5ebd af75 4cbc 4ab2 3abc
00000120: ce0f 53bd 274e a93c f63c 453d 8786 dc3b
00000130: fb54 a93c 1bb9 c33c cb83 e43c b230 cbbc
00000140: aca7 07bb 00f7 ecbc c047 733c b4fa 243c
00000150: 6292 043d a374 193d 5d05 833d 28b4 a93c
00000160: 9b4b 033d 23a6 42bd 8517 383d e5dd 893a
00000170: 9ec2 c6bd 1ebd 003d a062 b53b e0cc c63c
00000180: a782 783d 08a6 9bbc 0266 82bd bba2 433c
00000190: 7e53 1d3c ab82 05bc 9f20 aebc f1e4 82bd
000001a0: 2a6b 80bc df41 38bc 10f4 5abd b278 863b
000001b0: 8935 cc3d 86c2 3aba 77f0 febc 50c4 9bbc
000001c0: 299c 33bc 632d 5dbd e30f a9bc b7a1 1ebd
000001d0: 4037 f7bb a485 8c3c 39be 1a3d 18ee 32bd
000001e0: 496b 0d3d 5141 973d c87c 2ebd 61a0 0bbd
000001f0: 91ab 86bd ded2 5e3b 2657 14bd 4572 aebc
00000200: 6998 9cbd cd98 9abc 7b3f be3c e22f 5abc
00000210: cbf2 80bc 475c 813c 6cc9 8d3c d472 84bd
00000220: 66d1 84bd 42fc e03c 3f29 c13c 8095 4ebd
00000230: 6ba2 05bd 1ed1 0fbd daef 463c 575d 273b
00000240: 5db1 eb3c a3ef 57bd 04b5 69bc c07c 973c
00000250: f150 c3bc f257 9c3c 36b9 38bd 342c eabc
00000260: 94b1 86b7 dd27 91bc f81c fe3b 2069 1c3d
00000270: 9b09 8cbd a2c3 80bd 884c 7d3c 8255 17bd
00000280: 043e afbd dcf2 4cbd 3e62 47bc c72a c63c
00000290: 567b fd3c 8bfe 5abc 25fc 2e3d dfeb 28bd
000002a0: a3a0 cf3c bf1b 07bd 3b59 c0bd a8ed c03b
000002b0: a5ee d33c 4d68 153c 4279 8bbd 471f 913d
000002c0: dd78 f8bb 01da 7b3d dd61 22bd f673 18bd
000002d0: 6e79 9fbc 0be8 49bc 83cc 663c 3513 10bd
000002e0: 5f50 483d 8d72 74bc a161 95bd a30e ebbc
000002f0: 3f2d 40bc 33af 07bb 7b0d 7abc f9ad a3bd
00000300: 8cb4 d83b f8e2 2e3c 5dc4 02bd 0172 d83c
00000310: 76b8 193d 0fb6 7b3d 5633 7dbb 4a83 83bd
00000320: c93c aebd e6d1 c63c 0545 10bc d543 cc3b
00000330: bebd da3c f19f c4bd 6b21 7bbd 4781 0ebd
00000340: ba6f 72bd 7f97 d13c 70c5 463d 3a7e bcba
00000350: 4af3 8b3c 1509 313c 9124 723d 8845 ccbd
00000360: 922f 513d 012a febc faf9 46bc 7a5c 25bd
00000370: 40cb ab3c 6f50 08bd 538d 92bc b966 cabb
00000380: 0adf d93b 7e90 22bd 6f2b 4fbd 5bb4 30bd
00000390: e2ec bcbc 8fa4 053d aec3 033d cefa 17bd
000003a0: b61e 43bb 5d3a b5bd f84f a0bc 285b a73c
000003b0: 0e29 9abc e822 2b3d 8ebc 643d 46ac 883c
000003c0: f6b0 243d a45b f43c d054 2a3d e72f 96bd
000003d0: 2e57 873d e62d 343d cdc0 b63b ff70 3ebd
000003e0: 7fae 213d 80ad 453d 3c8c 1abd 8758 483d
000003f0: eeda a33d fc77 433d 1140 5abc a7ee d4bb
-0.0377902 -0.045759298 -0.053741787 -0.083610564 -0.02958409 -0.0020967496 -0.055461626 0.02172003
-0.061252333 -0.06700272 -0.0068491483 0.043810025 0.051529594 0.00551596 0.011621238 0.0019132833
0.022169832 -0.022152921 -0.02129661 -0.0022202006 0.015221451 0.019882372 -0.03468341 -0.020289421
0.00557922 0.021754684 -0.04071721 -0.03648925 -0.012013661 -0.0741639 -0.01401689 0.022491204
-0.072526686 0.034109708 0.06618748 -0.046411045 -0.052791823 0.021699088 0.0022421458 -0.032184105
0.020609222 0.0059722234 0.020372722 -0.030216048 -0.014097005 -0.05018446 -0.07846308 -0.045418188
0.012600659 0.069677204 -0.0072543435 0.0031390793 -0.05874672 -0.05732127 -0.035679307 -0.06742217
-0.04161292 -0.043274384 -0.04365388 0.00764403 -0.041013397 -0.015883295 -0.019774267 -0.016972646
-0.08944878 -0.07313031 -0.08642786 0.037327055 -0.012583499 -0.054219097 -0.01247923 -0.0113950465
-0.051528744 0.020667149 0.04815384 0.006729904 0.020670405 0.023891976 0.027894875 -0.024803493
-0.0020699305 -0.028926373 0.0148486495 0.010069538 0.032366164 0.03746475 0.06397507 0.020715788
0.032054525 -0.04752172 0.044944305 0.00105184 -0.09705089 0.031430356 0.0055354387 0.024267614
0.060671475 -0.019000068 -0.06367113 0.011940653 0.009602426 -0.008148829 -0.02125579 -0.06391323
-0.0156761 -0.011246174 -0.053455412 0.0041037435 0.099711485 -0.0007124323 -0.031120522 -0.019014508
-0.010962524 -0.053998362 -0.020637458 -0.038728442 -0.007544428 0.017153569 0.037779067 -0.043684095
0.034526143 0.07385505 -0.04259947 -0.034088496 -0.065756924 0.0034000198 -0.036215924 -0.021294722
-0.076462574 -0.01887169 0.02322363 -0.01331708 -0.015740773 0.015791072 0.01730796 -0.06467214
-0.06485252 0.027464036 0.023579238 -0.050435543 -0.032625597 -0.03511154 0.012142146 0.0025537813
0.028771097 -0.05271877 -0.014264349 0.018492103 -0.023842307 0.019084904 -0.045098506 -0.02858553
-1.6056736e-05 -0.017719204 0.007754918 0.038186193 -0.068377696 -0.06287314 0.015460141 -0.03694678
-0.085567504 -0.050036296 -0.012169419 0.02419032 0.0309426 -0.013366352 0.042720933 -0.04124057
0.025345152 -0.032985445 -0.09392019 0.005887706 0.02587063 0.0091191055 -0.068102375 0.07086044
-0.0075827674 0.0614872 -0.03964411 -0.037219964 -0.019467082 -0.01232339 0.014086845 -0.035174567
0.048904773 -0.014919889 -0.07294012 -0.028693503 -0.0117295375 -0.0020703792 -0.015262003 -0.07992167
0.0066133197 0.010674231 -0.031925548 0.026421549 0.03752943 0.06145292 -0.0038635335 -0.06421526
-0.085076876 0.02427001 -0.008805518 0.006233672 0.026701804 -0.09600819 -0.061311167 -0.034791257
-0.059188582 0.025584934 0.048528135 -0.001438088 0.017083783 0.010805388 0.059116904 -0.099741995
0.051070757 -0.031025888 -0.01214456 -0.040371396 0.02097094 -0.033279832 -0.017889654 -0.0061767963
0.006648903 -0.03968858 -0.05057853 -0.04314075 -0.023062173 0.03262764 0.032169037 -0.03710442
-0.0029772944 -0.088490225 -0.019569382 0.020429209 -0.018818405 0.041781336 0.055843882 0.016683709
0.040207826 0.029828854 0.04158479 -0.073333554 0.06608425 0.043989085 0.005577183 -0.04649448
0.039473053 0.048261166 -0.037731394 0.04891255 0.08000742 0.047721848 -0.013320939 -0.006498176

conv2.0.bias f4 [64]
00000000: d826 1b3d b69a 43bd 093a 8abc 96db f43c
00000010: 5c36 4c3d 81be b5bc a29c 67bd f1a8 a3bb
00000020: fc90 62bd 1b12 ce3c 8383 5ebd 7c76 27bd
00000030: cc08 6d3d b52a be3c 80fb 0abb 3464 99bc
00000040: b2c5 043d 6055 373c edb3 71bc 9ff5 efbb
00000050: 7acd f4bc ba2e 073d 2a9b e9ba c5ec 2f3d
00000060: f090 2e3d 451e 453d 0f7b 55bb 31fb ef3c
00000070: 543b 053d 26a1 d73c 88b0 083d 3058 5c3d
00000080: 4867 513d 04b4 21bd 7b15 2fbd 4dfe 213d
00000090: 474c 023c 3f00 83bd 25dc 66b9 cecd 483d
000000a0: 5505 893b 7d0d f5bc 3976 29bd d70f 08bd
000000b0: 4c97 293d fd0d f63b 27d4 8b3b a157 3a3c
000000c0: b55e 1abb 0e93 e4ba 96bd 8fbc fe37 2fbd
000000d0: 98a5 223d 9132 9ebc 6500 883c 26f4 9dba
000000e0: e033 13bd 33f0 85bc 31ea 113d 8064 6dbd
000000f0: e82e 333d 8c41 a03c b0d7 ea3c 878f 4abd
0.03787884 -0.047754966 -0.016873376 0.029889863 0.04985653 -0.022185566 -0.05654586 -0.0049945046
-0.05531405 0.025155118 -0.054324638 -0.04088448 0.057869717 0.023213724 -0.0021207035 -0.018724538
0.0324151 0.011189789 -0.01475237 -0.0073229815 -0.029883135 0.033003546 -0.0017822732 0.04295041
0.042618692 0.04812457 -0.003257457 0.029294582 0.032527283 0.026321959 0.03337148 0.05379504
0.051123887 -0.039478317 -0.042745095 0.03954916 0.007952756 -0.06396531 -0.0002201652 0.049024396
0.004181544 -0.029913658 -0.04137251 -0.03321823 0.041404054 0.0075089918 0.004267234 0.011373431
-0.0023554985 -0.0017438845 -0.017546456 -0.042778008 0.039708704 -0.019311221 0.01660175 -0.0012050911
-0.035938144 -0.016349887 0.035623733 -0.057957172 0.043745905 0.019562505 0.028667301 -0.049453285

conv2.1.weight f4 [64]
00000000: e07b 833f 3b07 7a3f 9b9b 813f 3172 7e3f
00000010: c559 883f 251e 8a3f 7727 833f 0a24 7a3f
00000020: 0f11 813f 5f39 803f 8e1e 873f 75b6 7a3f
00000030: 7f89 713f 8305 803f 364e 7d3f 6191 763f
00000040: 76f6 833f 9f9c 813f 2014 803f 4495 803f
00000050: 01c3 843f 1573 823f cb13 853f c0a8 7d3f
00000060: 4d42 823f bd94 773f 27fe 7b3f 9b12 7d3f
00000070: e944 843f 73fa 6c3f 747c 863f f358 843f
00000080: 8cf0 7a3f 4575 6f3f 3534 753f 640d 853f
00000090: 1034 733f 13b4 813f 7886 7b3f 07c8 873f
000000a0: d065 7a3f 1577 7d3f 5db3 823f 6a3d 793f
000000b0: cba1 813f f175 843f 75a4 743f 33f6 823f
000000c0: bfd7 733f 93c5 863f 8516 703f 20ad 823f
000000d0: b78e 823f b2c6 703f 7c48 823f 80b2 7b3f
000000e0: 9812 7f3f 3713 833f 8ec0 823f d77c 873f
000000f0: 4c77 713f 3944 883f f1ce 803f 5ef1 7f3f
1.0272179 0.9766728 1.0125612 0.9939299 1.0652395 1.0790449 1.0246419 0.9771124
1.0083331 1.0017508 1.05562 0.9793466 0.9435043 1.0001682 0.98947465 0.9631558
1.0309589 1.0125922 1.0006142 1.0045552 1.037201 1.019137 1.0396665 0.9908562
1.0176483 0.9671133 0.9843468 0.98856515 1.033353 0.92569655 1.050673 1.0339645
0.98023295 0.93538314 0.95782787 1.0394711 0.95001316 1.0133079 0.9825206 1.0607919
0.97811604 0.9900983 1.0210987 0.97359335 1.01275 1.0348493 0.9556344 1.0231384
0.9525108 1.0529045 0.9378436 1.0209084 1.0199803 0.94053185 1.017837 0.98319244
0.99637747 1.0240239 1.0215013 1.0584973 0.9432266 1.064582 1.0063154 0.9997767

conv2.1.bias f4 [64]
00000000: e744 0bbd 0b39 a7bd 3f2e 34bd e691 2bbd
00000010: 6c00 0cbd 8c89 a4bd 85ff 503c e4a4 62bd
00000020: 28a1 83bd fb0d a1bd 95b2 afba d316 7bbc
00000030: e205 8ebc 129b ed3a f96d 7abd 6ec5 cdbc
00000040: 25e0 5fbd fef2 f8bc 1c13 46bd 8fec 85bd
00000050: e9c9 c4bb da5b 75bd 2283 c1bd 973a 81bc
00000060: 7ee7 eeb9 e0d0 30bd e0ba 0fbd 0248 25bd
00000070: befb 70bd b668 e6bd 1ffb 25bb 353d 7abd
00000080: ede5 2cbd 7f14 09be cf0e 64bd b118 09bd
00000090: f98d 18be 29e9 ccbc a262 52bd a2fb 79bd
000000a0: b86c dcbc 81ed 49bd 1491 0ebd 9c3a 14bd
000000b0: 2717 bcbd be0c 24bd bbb2 dfbd 15c1 fbbc
000000c0: 8dbb 64bd 3544 a43c c8a8 74bd c37b 00bd
000000d0: 7566 0c3d 37a3 16be 3490 d63c 47ce 73bd
000000e0: 0136 48bd 1997 ffbc 9fe6 32bb e3d5 75bc
000000f0: 437d b1bd a4d9 07bd 1412 79bc d364 f5bb
-0.034001257 -0.08165177 -0.043989416 -0.041887186 -0.03418009 -0.080340475 0.012756233 -0.055333033
-0.064272225 -0.07863995 -0.0013404662 -0.015325266 -0.01733679 0.001812788 -0.061140034 -0.025118556
-0.05465712 -0.030389305 -0.048358068 -0.065392606 -0.006005515 -0.05990205 -0.0944884 -0.015775008
-0.00045567373 -0.04316795 -0.035090327 -0.040351875 -0.05883383 -0.11250441 -0.0025326682 -0.061093528
-0.04221146 -0.13386725 -0.055678185 -0.033470813 -0.14897908 -0.025013523 -0.051363595 -0.06103099
-0.02690731 -0.049298767 -0.034806326 -0.036188707 -0.091841035 -0.040051214 -0.10922762 -0.030731717
-0.055842925 0.020052055 -0.059731275 -0.03136803 0.0342774 -0.14710699 0.026191808 -0.059522893
-0.048879627 -0.031199979 -0.0027298105 -0.015004608 -0.0866647 -0.033166543 -0.015202064 -0.007488826

conv2.1.running_mean f4 [64]
00000000: 325d 89bf 8f3b 853f da78 d5be c5d5 09bf
00000010: ba64 ecbe 8c97 9bbf 1036 94bf a3ba a1bc
00000020: d1f8 c6be 20de 55bd ece5 6dbf f3d9 cabe
00000030: fc5a d53e db3a f6be cd17 08bd 6873 d1be
00000040: bf55 98be ee7c 41bf 9a4c 52bf fa74 e1be
00000050: 5a75 76bf 3333 1dbf 4860 19bf 6527 98be
00000060: 77aa 21be ab32 923e 3c46 a9be 62bb 01bd
00000070: d23a 0bbf 3692 a83f b5a7 44bf f432 1fbf
00000080: 7db9 2dbe e1fc 873f de25 023c 1890 b4be
00000090: 0811 d53f d1e8 26bf 1791 dcbd 0a5a 83bf
000000a0: b6bd 973e 3b56 7abf ccf8 eabe 12db b7bc
000000b0: f6f0 46bf 7624 16bf 5dc8 513e f5db dfbe
000000c0: b226 c83d 211b bebe 0f2a 793e 183b f9be
000000d0: 45f7 42bf 05a2 383f 39f5 6ebf 369e b6be
000000e0: 12ba fbbe c80e 78bf 1d67 c2bf 98a4 6cbf
000000f0: 959b 8fbe 3fdd 94be 057b bebd 09b9 14bf
-1.0731566 1.0408801 -0.41693765 -0.5384181 -0.46170598 -1.2155623 -1.1578999 -0.019742316
-0.38861707 -0.052213788 -0.9292896 -0.39619407 0.41670978 -0.48091778 -0.033225823 -0.4090836
-0.2975292 -0.7558125 -0.82148135 -0.4403456 -0.96272814 -0.6140625 -0.5991254 -0.29717556
-0.15787683 0.28554282 -0.33061397 -0.031672843 -0.5438663 1.316962 -0.768184 -0.62187123
-0.1696529 1.0624048 0.007943599 -0.35266185 1.6645823 -0.65199 -0.10769861 -1.0261853
0.29636925 -0.9778783 -0.45892942 -0.022443328 -0.7771143 -0.58649385 0.20486589 -0.437225
0.097730055 -0.37130073 0.2433245 -0.48677897 -0.76158553 0.7212222 -0.9334293 -0.3566758
-0.49165398 -0.96897554 -1.5187718 -0.9243865 -0.28048387 -0.29075047 -0.09300808 -0.5809484

conv2.1.running_var f4 [64]
00000000: 0966 af3f 36c5 973f d460 743f c4a3 5a3f
00000010: e39e 443f 3ae0 a53f 7da2 9e3f 0f98 443f
00000020: dee2 0d3f 161f 0e3f ed2f 9d3f 7119 1b3f
00000030: 97e8 1d3f 62a7 463f a2d8 173f 3556 4d3f
00000040: 7050 663f 919b 893f 89ff 5b3f 74e2 503f
00000050: 9018 9a3f e3d2 3c3f 3f75 5d3f 96fc 253f
00000060: ca00 533f 9cc2 0a3f 012b 163f 4eaa 003f
00000070: 9d58 6d3f 68d8 c03f b4b9 cb3f 2ea5 6d3f
00000080: e270 2a3f 8233 9d3f e0ff 013f bed1 313f
00000090: f187 2740 ec78 613f ef41 1e3f 702f 833f
000000a0: cb2b 143f 2c68 b93f b5b3 2c3f d470 133f
000000b0: 7b4a 703f 6896 393f d929 703f bbd2 653f
000000c0: 338c 0f3f 434f 0c3f 75eb 393f 8e10 223f
000000d0: b945 523f b7a9 313f 0645 8d3f c306 343f
000000e0: 9f9c 573f 1d77 9e3f a468 1140 2ec1 cd3f
000000f0: 360b 3c3f 3713 483f 36b7 393f 9080 783f
1.3703014 1.1857059 0.9546025 0.85406137 0.7680494 1.2959054 1.2393337 0.76794523
0.55424297 0.55516183 1.2280251 0.60585696 0.6168303 0.77599156 0.5931493 0.80209666
0.8996649 1.07506 0.8593679 0.8159554 1.2038746 0.7375929 0.8650703 0.6483854
0.8242308 0.542032 0.5865937 0.50259864 0.9271334 1.5066042 1.5916047 0.9283017
0.66578496 1.2281344 0.5078106 0.69460666 2.6176722 0.8807514 0.61819357 1.0248852
0.5787932 1.4484916 0.6746171 0.5759404 0.9386365 0.72495127 0.93813854 0.89774674
0.560733 0.54808444 0.72624904 0.6330651 0.8213764 0.6939959 1.1036689 0.7032282
0.8422336 1.23801 2.2720118 1.6074579 0.73454607 0.7815432 0.7254518 0.9707117

conv3.0.weight f4 [128, 64, 3, 3]
00000000: a913 013d 82eb 173d 178e 4d3c 5273 fdbc
00000010: 48c2 d53b 148a b43c a41a 373d b23f 213c
00000020: a208 6f3d 6ffe f538 0c14 1fb8 a765 16bc
00000030: 8608 953c 9ebf e7bc 10bf 753c 5bf8 9e3c
00000040: a4db d7bc 8214 c1bc 1ea4 53bd 2f80 a83c
00000050: 6a15 883c 096b 8a3b decb debb 5e4c e9bc
00000060: 791d 69bd 26fb 903a 617d 7dbd 50cc 263d
00000070: 762d 2e3d 99ea 1e3d ecd1 313d 7772 943c
00000080: 9086 99bc 795d 73bc e07c 923c 600e d43c
00000090: 5b19 9d3c fafc 5a3b c6ac 8dbc e4d3 4cbc
000000a0: 813d 48bc bcb2 4cbc 0f23 d1bc ea2b c9bc
000000b0: c4c9 243c b8c3 493d 4dea 7d3d 7b83 d5bc
000000c0: 149f 273d 0329 713d 0630 0cbd 3deb a6bc
000000d0: 3722 1d3d 0619 6abb e974 073d c14a c13b
000000e0: ebb8 d03b 99ff 9c3b 942b 5b3d daca 453d
000000f0: 31c4 1f3d 3398 853c 5d9c 4b3d 16b3 29bc
00000100: c1d0 c8bc 35d4 05bd f8d8 7cbc c45f 0bbd
00000110: cfd8 aebc 1c53 14bd 7abe f1ba 662a e3bb
00000120: 7471 48bb 16b3 d63c eb71 16bc 2da6 0abd
00000130: 85f6 cebc 4464 cd3b 1117 83bc 023b 90bb
00000140: 03d8 603c 737f c53c 2f70 9d3b 22f5 9cbc
00000150: 1097 493d 3c37 5d3c 2753 49bd 45e9 c7bc
00000160: 3b24 c2bb d402 cdbc 75b5 633d a791 8d3c
00000170: c4a1 38bb f0ab 0a3c 0cbd 533d 09c2 353d
00000180: 8439 ef3c d947 1d3c c725 003d cec9 c13b
00000190: 1010 33b9 e870 0cbc 054b 3b3d 0ece 1f3d
000001a0: 2fad 783c 9304 b8bc 37e0 e73c 83d8 eabc
000001b0: 272c 8dbc 60ee 53bb 6bc3 c4bb 12a2 cdbc
000001c0: d570 853c 1d6b 2d3c 5fff bb3c 7926 e5bb
000001d0: 5f35 4abd 0fdc 84bc bb5f c5bc f78e 69bd
000001e0: 6cd5 1bbd 8985 8b3c 48e1 59bd 649c 0abd
000001f0: b2aa 0bbd ce5d a1bc 94ba 9b3c 6a2c 2c3d
00000200: 7258 ebbc 01a7 923d d722 693d 575a 0cbd
00000210: e849 8b3c 9378 bc3c 9bc6 26bd 175a 66bd
00000220: c115 60bc bb89 0c3c 90c1 96bc 2d2a ddbc
00000230: c795 8bbc 1bb4 c8bc 37af b7bc 6efb 1ebd
00000240: b203 303d c8f1 86bb 3d93 b2bb d957 853c
00000250: bf62 133d 9830 b83c 18f3 9eb9 9243 1ebd
00000260: 2907 0abd fe46 8ebc 5736 80bc 4a62 93bc
00000270: bde6 44bd 1621 ed3c 1191 a5bc d0ee 52bc
00000280: 784a 303d f59f 3fbb 7588 a13d dbc7 593d
00000290: 98c2 77bc abfd b43d b0b7 2f3c f7be 2d3c
000002a0: e75e 9c3b 0d68 dc3c 0744 1d3d afe4 843b
000002b0: df1f 723c 6448 3bbc d0c0 493d f3d0 303d
000002c0: 856c ce3c 2519 883c d581 ccbc cd8b 0abd
000002d0: 7524 f3bc 4426 5e3c 9ec9 b6bc a288 83bc
000002e0: 4b7d eb3c abb3 8cbc 580b 64bc dbd4 803d
000002f0: 70ce 763b 09d8 793c a567 7a3d 11d3 9abc
00000300: 66d9 183d fb99 893d 9590 fa3c a6f6 ec3b
00000310: 049a a73c a720 fcbb 6b72 283d 421a 063c
00000320: 7475 093d a124 5f3d dc67 2b3d d53c ea3c
00000330: d7b8 debc 6e80 f63c f934 9739 54af f6bb
00000340: 0a8c d0bc 5e2e e33b cd1a 4cbd 6b48 14bd
00000350: f9e7 913c 59b4 0ebd c43b f9ba 1b87 38bc
00000360: 2f7f 1bbd 62ff 92bc 41d5 533c 3136 e3bc
00000370: c2fd 78bc 2ac9 ce3c 21c8 79bd 2534 593b
00000380: c4ad f7bb 0ff3 0bbd 236d c8bc c37a 22bd
00000390: 5d2e ce3c 999c 2fbd d30d 7dbc fb4c 7d3c
000003a0: 199f 76bc 661c 88bd 2f61 d5bc 11e7 303c
000003b0: 8899 dfbb 8d31 16bb 0208 fdbc f590 523c
000003c0: 8d1c 3e3c 1e1f 993c c628 3abb 9c96 943c
000003d0: afb2 86bc 010d 47bc 0c10 323c d731 a5bc
000003e0: 71cb 3b3c 54ae 243d 17fc 283c 89ea ddbc
000003f0: 2121 72bc 470f ddbb f6e3 c23c 42fb 9fbc
0.03151289 0.037089832 0.012546084 -0.030938778 0.0065234043 0.022038497 0.04470314 0.009841846
0.058357842 0.00011729902 -3.7927224e-05 -0.009179509 0.01819254 -0.028289612 0.014999166 0.019405534
-0.02634985 -0.02356935 -0.051670186 0.020568935 0.016611774 0.0042241854 -0.006799205 -0.028478798
-0.056912873 0.0011061176 -0.06188715 0.04072219 0.042523824 0.03879795 0.043413088 0.018120987
-0.018740922 -0.014853829 0.01788181 0.02588576 0.01917713 0.0033414946 -0.017294299 -0.012501691
-0.012221695 -0.0124937855 -0.025529413 -0.024557073 0.01005787 0.049258918 0.061991025 -0.026063671
0.040923193 0.058877002 -0.034225486 -0.020375842 0.038362708 -0.0035720482 0.03307048 0.005898804
0.0063697 0.004791212 0.053508356 0.048289157 0.039005462 0.016307926 0.049709667 -0.010357639
-0.024513604 -0.03267308 -0.015432589 -0.034026876 -0.021343617 -0.03621207 -0.0018443607 -0.0069325445
-0.0030585201 0.026208442 -0.009182434 -0.033849884 -0.025264034 0.006268056 -0.01600221 -0.0044015655
0.013723376 0.024108624 0.004804633 -0.019159857 0.04921633 0.013501938 -0.049151566 -0.024403224
-0.005924729 -0.025025763 0.055592973 0.017281367 -0.0028172592 0.008463845 0.05169396 0.0443745
0.02920223 0.009599649 0.031286027 0.0059139496 -0.00017076754 -0.008571841 0.04572584 0.03901487
0.015178009 -0.022463119 0.028305156 -0.028667694 -0.017232968 -0.0032338127 -0.006004741 -0.025101695
0.016289154 0.01058462 0.022948919 -0.0069931117 -0.049367305 -0.016218213 -0.0240935 -0.057021108
-0.03804533 0.017031448 -0.05319336 -0.033840552 -0.034098335 -0.01969805 0.019009866 0.042034544
-0.028728697 0.0716076 0.05691799 -0.034265842 0.017003015 0.023006713 -0.04071675 -0.05623826
-0.013677062 0.008577759 -0.018402845 -0.02699765 -0.017039193 -0.024499943 -0.022422416 -0.038814
0.042972274 -0.004118178 -0.005449681 0.01627724 0.035982843 0.022484109 -0.00030317227 -0.03863866
-0.033698235 -0.017367836 -0.015650911 -0.017991204 -0.04807161 0.02894644 -0.020210775 -0.01287432
0.04303977 -0.002923963 0.07887355 0.053169113 -0.015122078 0.08837446 0.010724947 0.010604612
0.0047720554 0.026905084 0.038394954 0.0040555815 0.0147781065 -0.0114308335 0.049256146 0.04316802
0.02519823 0.016613552 -0.024964252 -0.03382473 -0.02968047 0.013558928 -0.022312935 -0.016056363
0.028746268 -0.017175516 -0.01391872 0.06290599 0.0037659667 0.015249261 0.061134 -0.018899472
0.037316702 0.067188226 0.03058652 0.007231551 0.020459183 -0.007694322 0.041124742 0.008184971
0.033559278 0.05447829 0.041847095 0.02859346 -0.027187748 0.030090537 0.00028840432 -0.007528225
-0.0254574 0.0069330176 -0.049830247 -0.036201876 0.017810808 -0.03483996 -0.0019015004 -0.01126268
-0.03796309 -0.017944042 0.012929262 -0.027735801 -0.015197219 0.025242407 -0.060981873 0.0033142653
-0.0075585563 -0.034167346 -0.024466103 -0.039667856 0.025168592 -0.042873953 -0.0154451905 0.015460248
-0.01505258 -0.066460416 -0.026047317 0.010797278 -0.0068237223 -0.0022917718 -0.030887607 0.012851943
0.011603487 0.018691596 -0.002840565 0.018138222 -0.016442625 -0.0121490965 0.010868084 -0.020165367
0.011462078 0.040205315 0.010314009 -0.027089374 -0.014778406 -0.006746206 0.02379034 -0.019528989

conv3.0.bias f4 [128]
00000000: ca6d 15bd 8e18 f13c 0375 843c 254a 923c
00000010: 9258 ce39 cf76 f13c fd00 ea3c e664 13bc
00000020: f356 09bd 5997 0f3d 48f6 6dbc 548a 0b3d
00000030: b9a9 cbbc 3a0d a6bc 490f 05bd 51d7 a93c
00000040: b448 233d 0840 20bb 3d02 923b b121 f3ba
00000050: 4666 17bd 9e93 153d eb5e 863b 92e0 053d
00000060: dc37 fa3c 6ae3 0dbd 2c79 cb3c 15c2 02bd
00000070: c1bc 27bd 18b7 19bd 20c6 dd3b 4c88 d7bc
00000080: 6807 1c3d 987d bc3c 4a76 82bc 3f53 51bc
00000090: b766 303c 3ff4 b13b c624 fcbc 669a f9bc
000000a0: e54e 44bc c734 0ebb a9cc 0e3c 50b7 d0bc
000000b0: cada 7d3c f3f4 0fbd 0bb5 26bd bec4 58bc
000000c0: 6017 063d 4c5d e43c e2f8 2dbc 99ab f83b
000000d0: 2b9a c83b 720a a9bc dbfc d93c d145 36bc
000000e0: 0122 03bd 9706 16bc b169 a2bc ba71 193d
000000f0: 5975 0bbc 7628 0e3d b022 143d fdcd 1abc
00000100: 1031 1a3d 72bf 553c dbee d6bc 6a60 c03c
00000110: e47a 30bc a25d bebc 7385 823c 9ee9 5e3c
00000120: 0fab 043c 37ce 0e3d 5d2a d63b f5a1 bc3c
00000130: 6d6c 98bc f2e1 903b 2640 b73c 81c6 5ebc
00000140: 6906 5838 2fd4 1b3d ccec 87bc 788c febc
00000150: 9864 d33b cc9a a13c 36c6 fdbc b4e8 ae3c
00000160: 7a64 1e3d a6e1 7f3c 68d9 f5bc 71f8 13bd
00000170: 6211 a73a d440 1abd 3fd6 bebc 0416 29bd
00000180: dd4f d13c f48c 283d 54dc 263d d9e9 05bd
00000190: 3bb3 debc 32b0 17bd 1f5c b73c d76b 1ebd
000001a0: 2344 dd3c 5b63 f9bc 768a 763c cb0e d7bc
000001b0: 61af a9bc 1a98 013c 2090 673a c7b8 2a3d
000001c0: 1b48 e7bb a5c4 8fbb 3e67 0b3d 54f1 85bc
000001d0: ff4c e9bc 930f f1bc b28e 333c 0181 e9bb
000001e0: 2813 ddbc 5b36 bf3b 801f 40bb d51f 493c
000001f0: 7c37 b8bc 19f1 c03a edd8 ad3c 1ef5 dd3c
-0.036481656 0.029430654 0.016169077 0.01785762 0.00039357372 0.029475598 0.028564924 -0.008996224
-0.033530187 0.035056446 -0.01452405 0.034067467 -0.024861204 -0.020269979 -0.03248528 0.020732554
0.039864257 -0.0024452228 0.004455833 -0.001854947 -0.03696277 0.03651773 0.0041006706 0.03268487
0.030544214 -0.034640707 0.024838053 -0.031923372 -0.040951494 -0.037528127 0.006768003 -0.026310109
0.038093 0.023009107 -0.015925545 -0.012776195 0.010766677 0.0054307277 -0.030779254 -0.03046913
-0.011981701 -0.0021698938 0.008715787 -0.025478035 0.015494058 -0.03514571 -0.0407 -0.013230501
0.032737136 0.027876519 -0.01061842 0.0075888154 0.006121894 -0.020634864 0.026609829 -0.011125044
-0.03201485 -0.009156845 -0.019825788 0.037461974 -0.008511865 0.034706555 0.036165893 -0.0094485255
0.037644446 0.013046132 -0.026236942 0.023483474 -0.010771487 -0.023238007 0.015932774 0.013605503
0.008097424 0.03486463 0.006535812 0.023026446 -0.018606389 0.004421466 0.022369456 -0.013597132
5.1504383e-05 0.03804415 -0.016592406 -0.03107284 0.0064512007 0.019727133 -0.030978303 0.021351196
0.03867004 0.015617764 -0.030010894 -0.036125604 0.0012746269 -0.03765948 -0.02329552 -0.04128076
0.025550777 0.04115005 0.040737465 -0.032693718 -0.027185073 -0.037033267 0.022382794 -0.038677063
0.02701003 -0.030442884 0.01504766 -0.026252171 -0.02071351 0.007909799 0.0008833427 0.041680124
-0.007058156 -0.0043874555 0.034034006 -0.016350426 -0.028479097 -0.029426372 0.010959314 -0.007125974
-0.026986673 0.005835337 -0.002931565 0.012275656 -0.022487395 0.001472029 0.021221602 0.02709442

conv3.1.weight f4 [128]
00000000: 50a3 883f 9cf8 873f baaf 893f 6d97 8a3f
00000010: 100c 8d3f 3709 873f ef05 883f 30b4 883f
00000020: 3ab4 833f f315 873f aa6b 873f 50b3 833f
00000030: 6910 833f df51 863f 7a88 873f 233d 893f
00000040: 4730 853f f797 853f 2ef0 8b3f 617e 853f
00000050: a764 893f a9a8 853f 5c9d 873f fa0a 843f
00000060: cae7 853f 65c6 873f 0dba 843f ae80 823f
00000070: 17cd 883f bca7 853f 2df7 813f 9bc1 8a3f
00000080: 7045 883f 2f4c 823f 0a99 873f 0db1 913f
00000090: 9951 803f f5f9 8d3f 9dcd 893f 3c1b 863f
000000a0: da9f 853f eed2 863f 3717 843f feb7 843f
000000b0: e946 893f 74e3 823f c65b 903f ee2a 873f
000000c0: bdfe 843f 49ed 873f b6b2 873f 94ca 853f
000000d0: c68f 843f 48d9 883f 7444 883f 85f2 883f
000000e0: 7c27 843f c6d3 883f 8890 893f f0b5 863f
000000f0: 5c7a 893f 8658 863f cfb5 843f 8c3e 843f
00000100: 144b 883f 4083 873f d697 853f ee68 8a3f
00000110: 7bd6 843f c685 843f 66e3 883f 3627 823f
00000120: 8d3b 863f 9b5a 883f ee3b 843f ef1e 883f
00000130: 019f 863f 9592 853f 845e 843f b986 883f
00000140: 39d0 863f a52f 8d3f 6ccf 873f 0d05 853f
00000150: 2ed9 863f 857f 833f 2778 863f ff7b 8b3f
00000160: fbdc 853f 617e 863f 8d47 8f3f d949 883f
00000170: 9210 873f 7bea 833f 4956 8a3f 564f 823f
00000180: 3449 8b3f 4321 873f ac60 883f dee6 8a3f
00000190: 899d 883f fe68 873f 7f49 853f f2ff 813f
000001a0: d8ed 863f b33b 8f3f e3c4 863f 279a 8a3f
000001b0: 88b3 8a3f 0f76 893f a6e8 893f 07e6 873f
000001c0: 1496 833f 7886 823f 7b9b 863f 9551 8b3f
000001d0: 3d04 833f e67c 823f 7979 873f d6ca 893f
000001e0: 486e 843f 9e8a 873f 7f8b 8c3f df0a 8a3f
000001f0: 3e5b 853f 5684 883f 04d2 863f ba09 833f
1.0674839 1.0622745 1.0756752 1.0827461 1.1019306 1.0549687 1.0626811 1.0679989
1.0289376 1.0553573 1.0579731 1.0289097 1.0239383 1.0493735 1.0588524 1.0721782
1.0405358 1.0437001 1.0932672 1.0429193 1.0733842 1.0442096 1.0594897 1.031585
1.0461361 1.060742 1.0369278 1.019552 1.0687588 1.0441813 1.0153557 1.0840334
1.0646191 1.0179499 1.0593579 1.1382157 1.0024902 1.1091906 1.0765873 1.0477061
1.0439408 1.0533121 1.0319585 1.036865 1.0724765 1.0225663 1.1278007 1.0559976
1.039024 1.0619289 1.0601413 1.0452447 1.0356376 1.0691309 1.064589 1.0699011
1.032455 1.0689628 1.0747232 1.0524273 1.0740466 1.0495765 1.0367984 1.0331588
1.0647912 1.0586929 1.0436962 1.0813272 1.0377954 1.0353324 1.0694396 1.0168216
1.0486923 1.065265 1.0330789 1.063444 1.0517274 1.0435358 1.0341344 1.0666114
1.0532295 1.1030165 1.0610175 1.0392166 1.0535028 1.0273291 1.0505418 1.0897216
1.0458063 1.0507318 1.119371 1.0647537 1.0551932 1.0305933 1.0807582 1.0180461
1.0881715 1.0557026 1.0654502 1.0851705 1.0673076 1.0578916 1.0413054 1.0156233
1.0541334 1.1190094 1.0528835 1.0828294 1.0836039 1.0739154 1.0774124 1.0617074
1.0280175 1.0197287 1.0516199 1.0884272 1.0235668 1.0194366 1.0583946 1.0765026
1.0346155 1.0589178 1.0980071 1.0784568 1.041847 1.0665386 1.0532842 1.0237343

conv3.1.bias f4 [128]
00000000: 0f27 95bb 0117 943c 7e56 a9ba 134f 5b3d
00000010: a404 993d d523 333d 4c0c 2d3d 4a16 1a3d
00000020: 1766 243d 456a 4dbc 1047 423d 5fb3 95bb
00000030: fcdf d53b 6e6a 313d 2897 823c 3848 c33c
00000040: 96a4 ee3c db14 813b e91c 55bc 89e6 a63b
00000050: 428d 9b3c 3457 31bb fd93 3f3d dc48 47b9
00000060: 6b7a 9d3c e512 883c 5e8d 773c 7b28 ac3c
00000070: 55ba c33b dc67 df3c af99 263c b743 243d
00000080: 55bc 353d 3d50 2b3c a5bc 163d 1d4d 313d
00000090: 6f5b 7abb 715a c73d 8801 b03c ad0a 92bc
000000a0: bec3 273d 1702 943c 5da2 5c3b 2370 d33c
000000b0: 47eb 4a3d fe37 903b de11 e03c 74f2 e13b
000000c0: 43cb 023d d9c2 183d 1296 203d 10d8 073d
000000d0: de85 a6b9 7157 ce3b ef1d 433b 3e88 573d
000000e0: 78b0 103c 30ec 823d 2d4c 213c 81d2 423d
000000f0: aaf9 aa3c d3cb 123c 378d a838 dacf 18bc
00000100: ca17 2b3b db67 273d f667 a43c 7d02 273d
00000110: 0837 e03c 54f9 013c 2ffd debc 9de3 853c
00000120: 1488 dc3c 0916 e73c 0cbf c13c 2cf8 be3c
00000130: 4ccc 1b3d f57a 0b3d 67e1 be3b d3e7 6e3c
00000140: 7dd0 4dbc 3421 023d 78ec 4bbb f858 b4bc
00000150: 88be 953c e481 b53c 9608 fe3c 0950 5a3d
00000160: de75 703c b95a aa3c ebbe f03b d20d 4c3d
00000170: e950 a43c 282b 97b9 4323 323d 2df4 54bb
00000180: b9ce 0c3c a7a7 723c eb3c 213d 8bf4 7e3d
00000190: 3b1e 2b3d e7e4 213b 2f15 ca3a 51bc 92ba
000001a0: b9e7 4f3c b46c 1e3d deaa 923c 211b f23b
000001b0: 2ad7 043d 9cfb c73c 7a6e fa3b 1d95 9d3c
000001c0: 4bf9 0a3c 59ff 493b 08c4 973c 67a7 983d
000001d0: a5a7 8c3c 0668 f43b 4cfb 613c 4d64 2a3d
000001e0: 2bd4 103c 168d 063d 319c 413d 2005 1c3d
000001f0: 6aa8 0939 5ac5 403d d5a3 9b3c 0cfa 3fbb
-0.0045517753 0.018077375 -0.0012919453 0.053542208 0.07471588 0.043735344 0.042248055 0.037618913
0.040136423 -0.012537544 0.04743105 -0.004568502 0.006526945 0.04331439 0.015941218 0.023838148
0.029131215 0.0039392537 -0.013007381 0.0050934 0.018988255 -0.0027060034 0.046771992 -0.00019005261
0.019223412 0.016610572 0.015109388 0.021015396 0.0059731402 0.027271204 0.010168477 0.04010364
0.04436906 0.010456142 0.036801 0.04328643 -0.0038201471 0.09734047 0.021485105 -0.017827356
0.04095816 0.018067403 0.0033666112 0.025810307 0.049540784 0.004401206 0.02735227 0.0068953577
0.031932127 0.037295196 0.03920562 0.033165038 -0.00031761726 0.006297045 0.002977248 0.052620165
0.008831136 0.063927054 0.009844822 0.047564033 0.020871002 0.008959728 8.0371676e-05 -0.009326899
0.0026106709 0.04087053 0.020069104 0.040773857 0.027369991 0.00793298 -0.027220337 0.016343886
0.026920356 0.02820875 0.023650669 0.023311697 0.03803663 0.034052808 0.00582521 0.014581638
-0.0125619145 0.031769946 -0.0031116288 -0.02201508 0.018279329 0.022156663 0.031009953 0.053298984
0.014676539 0.020795213 0.007346978 0.049817868 0.020058112 -0.00028833118 0.04349066 -0.0032494173
0.008594208 0.014810479 0.039364737 0.062244933 0.041776877 0.0024703087 0.001541769 -0.0011195039
0.012689524 0.038677886 0.017903741 0.007388488 0.03243176 0.024411969 0.0076425644 0.019236142
0.008482288 0.0030822365 0.018526092 0.074538045 0.017169783 0.0074586896 0.013792824 0.04159956
0.008839647 0.032849394 0.047268096 0.038090825 0.00013128077 0.04706321 0.01899902 -0.0029293327

conv3.1.running_mean f4 [128]
00000000: b6e5 653f 1596 9e3f 04d4 f93f f7b7 8bbe
00000010: 61ee 8dbf 324d 41bf 1e7b 19bf 22e4 643e
00000020: 3cda 8cbf 3d9e f23f 9513 a5bf da82 713f
00000030: 9cc8 2abf 8624 74bf 0ad5 0e3f 05b0 3c3f
00000040: 87ea 68bf 05ac 383f 383c d03f 29e2 883f
00000050: 3511 4a3f 84e8 683f 342d a1bf d0de 953e
00000060: 58e3 c63e 9fc5 983f cd08 1bbf a78d c8bf
00000070: 2ae4 2b3f 97ba 32bf 3e21 98bf 4107 243f
00000080: e375 94be 782b f33e 2986 86be 2a60 8c3f
00000090: ac67 f83c 424c 05bf b983 2d3f 4f5b e73f
000000a0: bfff 4bbe 6981 80be c0f4 a93f 71a5 30be
000000b0: d5dd 083f 0bfe a83e e528 7c3f 50ea 143f
000000c0: 4ec8 dbbf 5e56 823e 9482 1f3e ca36 063f
000000d0: 0062 b93f e414 403f 62ea 5c3f 0e9e a9bf
000000e0: 2ab6 0c3f 34bb 73bf cd90 bd3f e6b6 0fbf
000000f0: d138 893f 8d9f b23e 7eee a03e 545d d33f
00000100: 62a5 ae3f 45bb bebe 7be1 8dbf 8277 743e
00000110: d8ee 6abf 0719 0140 0329 d33f c424 ca3e
00000120: 6f98 17bf 1fb7 a23f 20a7 dcbe a315 b7be
00000130: d23a 5abe 6d75 63be 51da cc3e 4293 8c3f
00000140: 916e 923f 3563 fc3f 1184 0140 c7f3 953f
00000150: 0f26 86be 63ff 9cbe d1f3 333d 3420 473e
00000160: 98e6 843f d462 31bf b8d7 b73f b342 a7bf
00000170: ef8c d13e 4ae3 013f 2af1 3abf 8725 323f
00000180: 287e a83f aa39 a23f 7ae7 0c3f 8f82 c8bf
00000190: ce41 f9be a5c5 843f c89c c53f 5bfc 0ebf
000001a0: 2da0 103f d103 813f 7eaf 413e 464d c13f
000001b0: 5909 683e fa01 fe3f c4b7 463f ba07 3dbe
000001c0: 9279 223e 4a7b 043f 2eff c03f 2c89 85bf
000001d0: e0f5 63bf 2b69 1fbf 42aa e63f 9d08 77bd
000001e0: 02a4 513e edb0 bc3e 42c0 943e aaf4 063f
000001f0: dd35 ce3e 2465 4cbf 699f 8e3f 4cdd 6b3e
0.89803636 1.2389551 1.9517827 -0.27288792 -1.1088372 -0.75508416 -0.59953487 0.22352651
-1.10041 1.895454 -1.2896601 0.9434029 -0.66712356 -0.9536823 0.5579382 0.73706084
-0.9098286 0.7213748 1.6268377 1.0694019 0.78932506 0.9097979 -1.259192 0.29271555
0.38845325 1.1935309 -0.60560304 -1.5668229 0.67145026 -0.69815964 -1.1885145 0.6407357
-0.2899619 0.47494102 -0.2627423 1.0966847 0.030322872 -0.52069485 0.6777912 1.807474
-0.19921778 -0.25098732 1.3277817 -0.17250611 0.5346349 0.3300632 0.984999 0.5817003
-1.7170503 0.25456518 0.15577155 0.5242735 1.4483032 0.75031877 0.8629514 -1.325136
0.5496546 -0.95207524 1.4809815 -0.56138456 1.0720464 0.34887353 0.31431955 1.6512856
1.3644221 -0.3725225 -1.1084436 0.23873714 -0.91770697 2.0171525 1.6496891 0.39481175
-0.5921697 1.2712134 -0.43096256 -0.35758695 -0.213115 -0.22212763 0.40010312 1.098244
1.1439992 1.9717776 2.0236857 1.171502 -0.2620091 -0.30663595 0.043933693 0.19445878
1.0382872 -0.69291425 1.4362707 -1.306723 0.40927836 0.5073744 -0.7302424 0.6958851
1.31635 1.2673848 0.55040705 -1.5664843 -0.48683017 1.0372816 1.5438471 -0.55853814
0.5649441 1.007929 0.18914601 1.5101707 0.22659816 1.9844353 0.77624154 -0.18459979
0.15866688 0.51750624 1.5077875 -1.0432487 -0.8904705 -0.6226985 1.8020709 -0.06031095
0.2047272 0.36853734 0.2905293 0.5271708 0.4027547 -0.7984183 1.1142398 0.23033637

conv3.1.running_var f4 [128]
00000000: 8862 593f cbc2 8c3f 51c9 8d3f 4c92 633f
00000010: 5002 473f 98dd 1f3f 57cb 0d3f b71c 5f3f
00000020: 39ca 653f 9dfa 283f 9fb6 3a3f b1a0 1b3f
00000030: d6d4 f83e 95a5 623f 7267 013f 3966 5b3f
00000040: 8c75 113f cc32 1b3f e6f2 873f 22d0 433f
00000050: df63 3b3f 81d1 473f 8032 483f cf93 343f
00000060: 06d7 003f 082a 253f 6aae 333f 7c88 523f
00000070: 6c90 573f 013d 373f f329 fc3e d72a fc3e
00000080: 9e65 ec3e 932f 013f fb73 183f 73fb 7d3f
00000090: a1e1 d93e 195d 543f 121d 313f 984f 753f
000000a0: 1aa6 343f d784 433f 84ad 213f ed9a 2e3f
000000b0: 50ba 4c3f 0bad 363f 2e96 343f 0501 403f
000000c0: e874 a03f 99ed 203f fdcc 3e3f a262 083f
000000d0: f157 5a3f 4670 1a3f 0c5e 803f a3a6 1f3f
000000e0: b724 173f cfdd 243f c833 883f 69ef 293f
000000f0: 1eb6 fa3e 0f32 4c3f 1eaf 053f 80e8 373f
00000100: 395f 483f 1902 0e3f c3cb 293f d25e 523f
00000110: 7189 7a3f c54c 983f b74f 6c3f 0c28 dc3e
00000120: 4c40 e13e 042f 493f b71f fa3e 8f98 443f
00000130: c1f6 103f f080 0e3f 4a59 013f 2df5 123f
00000140: 1897 453f 69f8 8d3f 3a76 803f 921e 333f
00000150: bb79 183f 75dc e93e 0396 0c3f 7ab0 0f3f
00000160: 2c13 ec3e e762 1d3f a478 a23f c036 563f
00000170: 24ca fe3e 2e33 523f e7ea 4e3f b169 1e3f
00000180: 7080 5d3f 4de5 463f c327 103f 2a7e 093f
00000190: 30c0 453f 4bc7 0d3f 6245 413f 0c84 de3e
000001a0: 92b2 1d3f 468d 5d3f 3c9e 3f3f aed3 303f
000001b0: a4b5 853f eb0c 933f 0ced 023f 8f4a 2d3f
000001c0: 93c3 123f 5760 023f eaa0 453f 3630 313f
000001d0: a909 dc3e acd2 ec3e 228c 513f cb3f 4c3f
000001e0: 8165 203f bc15 2a3f b65f 593f 0665 6f3f
000001f0: 14d8 203f 298f 2d3f 7347 3d3f 167e d53e
0.8491597 1.0996946 1.1077062 0.88895106 0.77737904 0.624475 0.55388397 0.8715319
0.8976169 0.66007406 0.7293491 0.6079207 0.4859988 0.8853391 0.5054847 0.85702854
0.5681999 0.60624385 1.0621002 0.7648946 0.73199266 0.7805405 0.78202057 0.7053804
0.503281 0.6451726 0.7018801 0.8223951 0.84204745 0.7157746 0.49250755 0.49251434
0.46171278 0.5046322 0.5955197 0.99211806 0.42554954 0.82954556 0.6918498 0.95824575
0.7056595 0.7637457 0.6315539 0.6820515 0.7997179 0.7135779 0.70541656 0.75001556
1.2535677 0.62862545 0.7453154 0.532755 0.8529044 0.60327566 1.0028701 0.6236364
0.590404 0.64400953 1.0640802 0.66380936 0.4896707 0.79763883 0.5222033 0.7183914
0.782703 0.5547195 0.6632654 0.82175934 0.9786597 1.1898428 0.92309135 0.42999303
0.43994367 0.78587365 0.48852322 0.76795286 0.56626517 0.55665493 0.5052687 0.5740536
0.77183676 1.1091434 1.003608 0.6996852 0.59560746 0.45676008 0.549164 0.56128657
0.46108377 0.6147904 1.2693067 0.8367729 0.49763596 0.82109344 0.8082718 0.6188002
0.86524105 0.77693635 0.5631067 0.53708136 0.7724638 0.5538222 0.75496495 0.4346012
0.616006 0.8654369 0.7485082 0.69073 1.0446057 1.1488317 0.51142955 0.6769189
0.5732967 0.5092825 0.7719866 0.6921419 0.4297612 0.4625448 0.8185445 0.7978484
0.6265488 0.66439414 0.8491167 0.93513525 0.6282971 0.6779657 0.7393715 0.41697758
